checkpoint_actor.pth (torch_old, 170466 bytes, 10 tensors)

fc1.weight f4 [256, 33]
00000000: 5664 913d e937 0f3e ccfb 97be db20 40be
00000010: 4de8 e1bc 395c e8bd 4144 2dbe f2b2 8a3d
00000020: 9df8 df3d 4e79 72bd 5333 56bd 4c31 dbbd
00000030: 9ccc 01be 3a44 2f3c 151e 623e da8e 4abc
00000040: dfa1 7fbd d9e2 503d fa01 f13d 0a7b 2cbd
00000050: a4f0 7d3d 02e8 6c3d 88c9 1abd e9f1 25bc
00000060: b88e 563e 3276 ad3d 2ab5 243e 9116 a1bd
00000070: bbb0 eebd 50bb 5cbd 3174 433e 4548 9bbd
00000080: 21f6 5ebd 85b2 3cbe 6a82 473e f904 db3d
00000090: 06c2 26be e0ee d33d de8e 273e 658c 3b3d
000000a0: d894 a43d 9b06 10bc 68af 9fbc 336e 2b3d
000000b0: c6e2 6bbd 4e39 0a3d df8c c23d 65d6 04be
000000c0: edb1 903c cc45 0fbe 1945 51be 0ab8 d6bd
000000d0: 7e75 b5bc 2980 4bbd b99c 213e 88da 3e3d
000000e0: 66c3 433e 0b78 abbc 6e0c c43e 2151 9fbd
000000f0: 9a58 94bd bad4 d4bb f204 67be 6228 e33d
00000100: 6f8b a6bd 18d9 663d 387e 87bc 04ed 7cbd
00000110: 94fa 7d3b a326 0c3e fb53 883d b7b7 06bd
00000120: ee46 313b 60f8 7ebc bdca 89be 2c6b 0dbe
00000130: a149 bf3c 8f7a 31be 52ca abbd 1a1b 873b
00000140: c60e 84be 37fd 363d f3a6 c9bd 9d4e 223e
00000150: 815b 5f3e d1aa a73d 75c4 a63c 0dea 77be
00000160: 1b3e 013e db09 f9bd 7bf0 a3be 3320 f0bd
00000170: e17d 183d c413 573e 9979 6b3d c42e 40bd
00000180: 188b 4bbd 2a25 6b3d 679b bf3d ba36 f93c
00000190: e093 22bd c2ac 6bbc db43 c6bd 50a9 b73d
000001a0: 516a 9c3d d2ef b8bd 2f43 0c3e 26c3 0fbe
000001b0: 500a 04bd ee51 29be 97e3 0c3e f037 1c3d
000001c0: af99 423e 90b3 a93d 66c2 45be 2354 1fbd
000001d0: 26c1 c03d 0772 43be 04e5 80bd 0ce3 65be
000001e0: f80b f73d 2d4e d4bd 7781 d2bd 1585 90bd
000001f0: 3412 aa3c 63dc 71be 7567 18bd 6193 a33e
00000200: d087 533d 5a95 003e f23d a03c 75ae b93d
00000210: b8b9 253d fbd7 103d feeb 803d b767 28be
00000220: 753b 973d eab3 dd3d 1f7e afbd bbab 983d
00000230: da66 86bd acbb 4dbd f9f9 85bc b282 63bd
00000240: 66da d03d de15 393d de32 023d 7852 373e
00000250: 8133 793b 75be 51bd 6c8d 543e 014f 6bbe
00000260: 60f9 813d 71e7 1d3c aa49 bebd a8a6 e2bd
00000270: 80ea 693b eafe f53d b21e 9f3d b072 333e
00000280: d086 103e 47bd b2bd 38df 2c3e 3cc7 0a3e
00000290: 40cd e73e 0819 a2bc 1a71 9f3d 00ef 8d3d
000002a0: 8d2e 6bbe d0a9 b7bc 5bf1 0fbd def2 52be
000002b0: 64ae 1dbd eab2 14bd 0e18 a5bc 2b14 ccbd
000002c0: f4a7 1a3e b17f 163d b237 babe 692a d83d
000002d0: 9085 6c3e 4ac8 babc 5033 02be 6f16 54be
000002e0: ccef ac3d 3bea cebd 7ae0 963d 3e59 613d
000002f0: b7ee 51be c850 1b3e 6b88 8c3d 9ba0 893e
00000300: 97c9 213e f9c8 0c3d 6365 103e 448a be3d
00000310: c7ce a33b 7ddc c43d f41c bebd 1144 273e
00000320: 2910 fbbd 6e7a dd3c c826 7c3d 0641 e5bd
00000330: da60 ffbd c67d 293d 28e8 1abc 9018 36bd
00000340: b9bc 6a3b 60fc e63d 28ca 96bd 9401 64bc
00000350: 46d9 11be 6c99 09be 5a29 cd3d 40ef 6bbd
00000360: aad9 e3bd aa3e 4f3b 1bcf a8bd 7eb7 8a3d
00000370: 0125 993c 9348 79bc e4db abbc bd96 2fbe
00000380: 8aa0 c0be 93fe 30be e682 7a3d 2289 4bbe
00000390: 5a71 103d cfbe 793e dacd 2f3f 0803 003e
000003a0: 6284 8b3d d894 713e f712 513d 2a6c 7cbd
000003b0: 3ac0 1bbd 60b9 aebd 92bb f23d 38b4 073e
000003c0: ec87 a73d 01d8 f23d e437 31bc 12da cc3d
000003d0: 7d0f 13bd 5d7d e0bd a78e 003e 1fd1 0bbe
000003e0: 5529 8bbd 505d 763d f683 d1bd dcb3 3e3d
000003f0: efd2 233e 5b4b 9e3d 83e2 88be 5337 813d
0.07099216 0.13986172 -0.29684293 -0.18762533 -0.02757659 -0.11345715 -0.16920568 0.06772412
0.10936091 -0.059197716 -0.05229504 -0.10702762 -0.12675709 0.010697419 0.22081788 -0.01236316
-0.06241023 0.05099759 0.11767955 -0.042109527 0.06199707 0.057838447 -0.03778985 -0.010128477
0.2095288 0.084698096 0.16084734 -0.07865632 -0.116548024 -0.053889573 0.19087292 -0.07582144
-0.054433946 -0.18427475 0.19483343 0.10694308 -0.16284952 0.10348296 0.16363093 0.045788188
0.08036202 -0.008790637 -0.01949282 0.04185314 -0.057589315 0.033746056 0.09499525 -0.1297241
0.017662967 -0.13991469 -0.20436515 -0.104843214 -0.022150751 -0.04968277 0.15782441 0.046595126
0.19117507 -0.020931264 0.38290733 -0.07779146 -0.07243462 -0.0064950855 -0.2256048 0.11091687
-0.081320636 0.05635938 -0.016539678 -0.061749473 0.0038754093 0.13686614 0.06656643 -0.032890048
0.0027050334 -0.015562147 -0.2691249 -0.13810414 0.023350539 -0.17331909 -0.08388199 0.004123104
-0.2579252 0.04467508 -0.09846296 0.15850301 0.2181225 0.081868775 0.02035735 -0.24210377
0.12621348 -0.12160083 -0.3201941 -0.117248915 0.037229422 0.21003634 0.05748901 -0.0469196
-0.049693197 0.05740849 0.093558125 0.030421603 -0.039691806 -0.01438445 -0.09680911 0.08967841
0.07637466 -0.09030117 0.13697504 -0.14039287 -0.032236397 -0.1653516 0.13758694 0.038139284
0.19003938 0.08286202 -0.19312438 -0.0388986 0.0941184 -0.19086467 -0.06293681 -0.22449893
0.1206283 -0.10366473 -0.102786 -0.070566334 0.020760633 -0.23619227 -0.03720804 0.3194838
0.051643193 0.12556973 0.019560788 0.09066478 0.04046032 0.035362225 0.06295012 -0.16445814
0.073843874 0.108253315 -0.085689776 0.0745463 -0.06562586 -0.050227806 -0.016354548 -0.055544563
0.10197906 0.04518687 0.031786792 0.17902553 0.0038025083 -0.051207025 0.20757073 -0.22979356
0.06346393 0.009637699 -0.09291394 -0.110669434 0.0035692751 0.120115116 0.077695265 0.17524219
0.14113927 -0.08727508 0.16882026 0.13552564 0.4527378 -0.019787326 0.07785244 0.06930351
-0.22966976 -0.02241984 -0.035142284 -0.20600459 -0.03849639 -0.03630344 -0.020153072 -0.09964784
0.15103132 0.03674287 -0.36370617 0.10554964 0.23097825 -0.022800583 -0.12714887 -0.20711683
0.08444175 -0.1010327 0.07367034 0.05501675 -0.20501219 0.15167534 0.06861957 0.26880345
0.15799557 0.03437135 0.14101176 0.09303716 0.004999015 0.09612367 -0.09282866 0.16334559
-0.12258942 0.027035918 0.061560422 -0.11194043 -0.12469645 0.041379713 -0.009454764 -0.04445702
0.0035818054 0.112786055 -0.07362777 -0.013916392 -0.1424304 -0.13437432 0.10017653 -0.057601213
-0.111255005 0.0031623044 -0.08242627 0.067732796 0.018694403 -0.015215057 -0.020978875 -0.17147346
-0.37622482 -0.17284612 0.06115999 -0.19876531 0.03526435 0.24389194 0.6867348 0.12501156
0.068123594 0.23591936 0.051043477 -0.06162659 -0.03802512 -0.08531451 0.118521824 0.13252342
0.08180222 0.11857606 -0.010816548 0.10002531 -0.035903443 -0.10961411 0.12554418 -0.13653992
-0.06794993 0.060147583 -0.10230248 0.046558246 0.15998434 0.07729217 -0.26735315 0.063093804

fc1.bias f4 [256]
00000000: a794 bcbc 1a09 44be 1adc 8abc 9c58 e03b
00000010: eae2 68bd 4b6b 903b 577d e6bd c893 b6bd
00000020: 6e5c 7d3c f9bf dbbd f87c 09be 0e09 c8bc
00000030: 6dfa 5abc d042 fdbd 58f9 e03a 2cc5 f5bd
00000040: 0bce 88bd dc13 fabc 7088 61bc 664a 343c
00000050: 2d5e 19bb ea30 74bd 4e6c e2bd a07a 873d
00000060: a84d 94bc 9325 3a3d 972e 14bd 3917 25be
00000070: 590b 343d d7e8 0f3d 25b7 223d 692f 69bb
00000080: 3f75 073d 912a 313d 488c c53a 594a 12be
00000090: 314f bb3d 2e15 6b3d 141d 5ebd 3e67 74bd
000000a0: e012 c7bd 9364 03bd dc7d 0ebd a8fa c6bd
000000b0: b2f8 31bd 8bdd 9abd c808 fc3d 7dad adbd
000000c0: 37f5 d4bc c014 fabc cf26 56bd cca1 65bd
000000d0: 72de 52bd ac75 67bb 5e9d 993d 5fd2 a8bd
000000e0: ae99 85bd 738a 76bd 713f d9bd 1c14 41bd
000000f0: 685a 5abd 9391 08be 1090 523d f77c 81bd
00000100: 2b83 493d 2ade 7a3c 0c11 e9bc 9d89 b83b
00000110: 426e 92bc 176a cb3d 431f 9fbd 5f9c 2cbd
00000120: 5bfa cfbd b142 c4bc dc67 cb3b 21c1 9ebd
00000130: f49a 49be 8464 4abd 3550 79bd 8576 46bd
00000140: 5a0b de3c a962 a63c 8799 523d bf57 133e
00000150: 3bcb 1ebe dc45 8cbd 8235 f6bc 64d7 f9bd
00000160: ebaf 57bd 901e 11bd 899c af3b edb0 d4bd
00000170: ce3f 85bc 2184 ebbb 35bc 2dbd 9c8b 3cbc
00000180: 08dd bdbc c630 f7bd 65fb 10be bc99 30be
00000190: 1c28 83bc 6a09 07bd 6ec7 86bd 3606 8fbd
000001a0: 61eb a9bb 71af d5bd aded ac3d 93fd 09be
000001b0: d64f 2dbe a0b5 1c3d c7c3 33bc 1b96 babd
000001c0: a649 53bd f1f5 7b3d acf6 c2bc f149 ffbd
000001d0: 5355 e4bd 6998 ae3d 1bff ff3c bf85 463d
000001e0: 7545 25be 1eb8 58bd bc73 a2bb 3405 ccbd
000001f0: 3366 033d 86f6 0dbe c270 04bc e3a7 f1bc
00000200: 32bb 80bd 4a28 aebd b903 66bd 3f1b fbbc
00000210: 8e44 5d3d ec6c dbbd 98d2 9abd ba14 5b3d
00000220: 5bbd a3bc db6a f9bc 2fe9 c6bd 7946 51bc
00000230: 4245 37bd 24ff 0cbe a8ae 7bbd af0e b7bd
00000240: 6adb 4a3c e429 0cbd 846c cebc 8442 8a3d
00000250: 90a2 36bd a778 233d e58a 293d d6ac a8bd
00000260: c5c6 19be 0c40 723b 9d64 a43d 8010 603a
00000270: 1053 c1bc 9cb0 783b 61e5 0abe fa53 36bd
00000280: 4d1b e8bc d564 bd3d a845 babd 3530 e3bd
00000290: 8110 66bd f463 04bd bbd2 01bd 9cae 93ba
000002a0: 2e38 eb3a 0072 483d da07 663d f7eb 243d
000002b0: 5f79 d6bc c680 11be df6e 7ebd 993f 3c3d
000002c0: 630d f23c 5ed0 36be e8f3 ce3b 4ae7 6cbd
000002d0: cc9d 933c f927 b9bd 67a9 88bc 2876 213d
000002e0: 6ebb e4bd 65b3 bfbd 4903 4cbd c2c0 c7bd
000002f0: 997c 57bd 5485 dc39 f196 c8bd e5ea f43c
00000300: 14b2 d8bd 59d0 95bc 3ab4 3e3d b318 8fbc
00000310: 7c58 243d 9a42 1cbd 31de 93bd 07ab d7bd
00000320: 323e 853d e2a7 57bd 1f42 32bd 7162 9dbd
00000330: 63e5 63bd 8abc 51bc 153e 95bd 5d0c a1bc
00000340: 0c7a 4dbc 3c21 e53c c1a8 a63d dad7 dc3c
00000350: bab2 3d3b 1219 1dbb f83c 1f3d e00b 503d
00000360: 96f5 3f3d ffcd e2bd 0559 82bd 19df b7bd
00000370: aceb 17bd 0fb7 0dbd 1358 9f3d 8227 56bd
00000380: f2f1 853d 0be1 663b 44d4 d1bd 3732 913c
00000390: fd60 af3c b15b 5fbd d82a 14b9 97c3 b1bd
000003a0: 60df 6fbc fc12 9e3d c4d3 05bd f529 ccbc
000003b0: 362a 14be af0e 383d 85ab a3ba 50cb 78bc
000003c0: b113 f83c c9bd 34bb 29ec 37bb 8055 073d
000003d0: 36db b8bc 5d24 a4bd 6afe 4bbd a75b 54bc
000003e0: b270 e8bd 3a80 0ebe 757d 45bd 360e f3bd
000003f0: 5f9d adbd cb52 94bd cb7f 54bd 66c7 a0bc
-0.023020102 -0.19144097 -0.016950656 0.0068465006 -0.056857027 0.0044073216 -0.112543754 -0.08914906
0.0154639315 -0.10729975 -0.13426578 -0.02441838 -0.01336537 -0.12366259 0.0017164154 -0.12000498
-0.066799246 -0.030527048 -0.013765439 0.011004066 -0.002340208 -0.05961696 -0.11055814 0.06615186
-0.018103436 0.04544599 -0.036177244 -0.1612214 0.043956134 0.035134163 0.03972544 -0.0035581237
0.0330708 0.043253485 0.0015071714 -0.14286174 0.09145964 0.057393245 -0.05422695 -0.059668772
-0.09720397 -0.032078337 -0.034787998 -0.09715778 -0.043450065 -0.07561787 0.123063624 -0.08480356
-0.025995834 -0.030527472 -0.052283105 -0.056062505 -0.05148167 -0.003531794 0.075007185 -0.0824325
-0.06523453 -0.06019063 -0.106078036 -0.04713832 -0.053308874 -0.13336782 0.05140692 -0.06322663
0.049197357 0.015311757 -0.028450511 0.005631639 -0.01787484 0.099323444 -0.077696346 -0.042141315
-0.101551734 -0.023957582 0.0062074494 -0.0775168 -0.19688016 -0.049412265 -0.060867507 -0.048452873
0.027105022 0.020310717 0.051415946 0.14388941 -0.15507214 -0.06849262 -0.030054811 -0.121992856
-0.052658003 -0.035429537 0.0053592366 -0.103853084 -0.016265776 -0.007187382 -0.042415816 -0.011507895
-0.023176685 -0.1206985 -0.141584 -0.17246145 -0.016010337 -0.032967962 -0.06581007 -0.069836065
-0.00518553 -0.104338534 0.084437706 -0.13475637 -0.16924986 0.03825915 -0.01097197 -0.091106616
-0.05158391 0.061513845 -0.023799263 -0.12465275 -0.11149087 0.08525164 0.031249573 0.048467394
-0.16139777 -0.052909963 -0.0049576443 -0.0996193 0.032079887 -0.13863572 -0.008083524 -0.029499
-0.06285705 -0.08503778 -0.056155894 -0.03065264 0.054020457 -0.107141346 -0.07559699 0.053486563
-0.019987753 -0.03044646 -0.09712445 -0.01277315 -0.044743784 -0.13769203 -0.061445862 -0.089383475
0.012381414 -0.034219638 -0.025198229 0.06750968 -0.044588625 0.039909985 0.041392226 -0.08236091
-0.15017231 0.0036964444 0.08027003 0.00085473806 -0.023599178 0.0037947064 -0.13564064 -0.04451368
-0.02833333 0.09247748 -0.09095317 -0.11093179 -0.056168083 -0.032321885 -0.03169511 -0.0011267248
0.001794582 0.048936844 0.05615983 0.040264096 -0.026180921 -0.1420928 -0.062117454 0.04595909
0.029547399 -0.17852923 0.006315697 -0.057837762 0.01801958 -0.09040827 -0.01668234 0.039419323
-0.11168562 -0.09360389 -0.04980782 -0.097535625 -0.05260906 0.00042061007 -0.09794415 0.029897163
-0.10580841 -0.018287824 0.046558596 -0.017467832 0.040123448 -0.038149454 -0.07220114 -0.10530668
0.065060034 -0.05265034 -0.04352009 -0.07684792 -0.055638682 -0.012801299 -0.07287232 -0.019659216
-0.012541305 0.027969949 0.08137656 0.026958395 0.002894564 -0.0023971242 0.038876504 0.050792575
0.04686507 -0.11074447 -0.063646354 -0.089780994 -0.03708999 -0.034598406 0.07780471 -0.05228377
0.06540288 0.003522935 -0.102455646 0.01772414 0.021408552 -0.054530803 -0.0001413034 -0.08679884
-0.014640659 0.07718465 -0.03267266 -0.02492235 -0.14469227 0.04493588 -0.001248703 -0.015185192
0.030282827 -0.002757894 -0.0028064346 0.033040524 -0.022565465 -0.08014748 -0.049803175 -0.012961305
-0.1134962 -0.13916102 -0.04821535 -0.11867945 -0.08477282 -0.07242354 -0.051879685 -0.01962633

fc2.weight f4 [128, 256]
00000000: 7587 8ebd f212 95bc d7ce be3c 968f e6bc
00000010: 4eb5 64bd cd02 153e 59d8 7dbd 464d 47be
00000020: 4472 01bd 029f 213d d999 b63d 8d9e 783e
00000030: 5710 77be e07a db3c 410b 8f3c ad17 65bd
00000040: 363e 1d3e 0ced e03d 99df e7bd 60d8 3f3e
00000050: 4d7e 4fbd 5a8a 6bbe fa20 b83d f5d6 1a3c
00000060: 612a 023e 5093 94bd 7975 2ebd c8a9 dfbd
00000070: 2452 6abd 7a70 973e 9a47 d23d 9961 063b
00000080: c57b e83d 3865 5abe ca02 8fbd 125a 983d
00000090: 3d05 1e3e 59c5 253e c4de 513d df2e 5c3e
000000a0: dba4 26be d9f4 b03e c18e b9bd 5939 393e
000000b0: 2f7c 953d 7d5c 20be 30f0 2bbe a0d7 a3bc
000000c0: 92b8 94bd bb77 e03d 007f 6f3e 9563 173e
000000d0: 99b2 b6bd ca15 2d3d ad31 5b3e 9bba 543e
000000e0: 0b14 493d a139 02bd f9ee ce3d b575 05be
000000f0: bc52 053e 07f0 9d3d 3b4c fe3d f71d 3e3e
00000100: cbfc 6c3e ee62 48bd 1b69 e2bc 00f3 89bd
00000110: 44f6 083e af00 1bbd 4063 1abe 5332 3f3d
00000120: 1c71 0bbd 4c59 303e e9ff 8ebe 9a43 ccbd
00000130: 0b80 843d ad6f 6bbd fd1f 743e 183c e3bd
00000140: 5379 6dbe f987 ea3d 124a b3bd fc18 5f3c
00000150: 2ce4 a93d 74ce 24bd c5a6 a4bd c4b8 153e
00000160: b802 ee3c cda4 ba3a 5295 4a3d 531f 6a3d
00000170: 766b 0b3e 00ac 26be 3095 413e 46b9 4a3e
00000180: 7830 b8bc ddba 363e 3ebd 12be 9463 3e3e
00000190: 32eb e53c d370 88bd de15 983a b048 f03d
000001a0: 0fdf bdbc d482 c23e 60e4 853d 62dc 333c
000001b0: 7770 d1bd a92a 9c3b f901 1dbe 065d 543e
000001c0: 3d8f 14bd b578 503d 9968 b03d f3e5 553e
000001d0: b28f 963b 3ffa 10bd 058f 54bd 5928 053e
000001e0: 0b11 4d3d 45a9 04be 7320 243e 1fdb 943d
000001f0: 9baa 39bd ae0c 3bbd 9350 bb3d 7c3f aa3d
00000200: 8ae5 603d 29ac 113d 0e6c 06bc 6750 5cbe
00000210: cd06 5cbc 9e4c 1cbe a2f8 2b3e d10a fbbc
00000220: a53b 8d3c 3736 a4bd a6f7 be3d fbe0 113e
00000230: cd94 8bbd 9f8d 173e 8849 8d3b 4f59 9c3d
00000240: be6b 723d 1ea1 5b3d 0499 bcbc 337c 163b
00000250: 7027 a1ba 3bdc 983d 9632 d53d 0c5d 593e
00000260: b898 f53d c38a c1bd d41a 723e 1133 5a3e
00000270: 9ca3 253e 4bad cfbd f04f 0d3e 1733 e93d
00000280: 7e99 323e 6538 33be 4896 a83d 8648 febd
00000290: 01b0 94bc 5c5e 953b 6578 f3bd 8bf3 1a3e
000002a0: 6f55 ff3d 10b4 a3bd b3b8 8c3d 3c5f 543e
000002b0: 716e e23d 0139 24bc 13e3 0d3e e1c5 843d
000002c0: 854a fd3d 9ff7 9d3d 9d55 ac3d 5a36 9c3d
000002d0: 5598 abbc b586 90bd adaa 183e a187 85be
000002e0: 6bdb cebd 4ec2 e93d c7b6 dbbc c5ea bebc
000002f0: a5a5 75be 198a 693c 0cd4 243d 01cb 0c3e
00000300: e814 fb3d 9a79 0a3e 6b9d c5bd 00e4 153d
00000310: 33c0 043e 39fe ddbc 09e3 f43b 4a4e 8a3e
00000320: 4152 89be 1d34 5dbe 1df6 a9bc 2d25 803e
00000330: 4ce4 a73b 0500 3abd b2fc 6b3e ccab 263e
00000340: dbb5 c03d 5e06 d83d 4033 26be 12c4 c83d
00000350: d0ab cebc d4ba debd e627 81bd d8e4 f3bc
00000360: d04c 9ebc fb50 943d b739 e83d 1d70 f43c
00000370: 24fd 2bbe 79b4 13bd b16a 493b 79c3 403d
00000380: 4417 89be 49db f2be c7d3 7fbd f4c8 f5bd
00000390: 78b1 2f3e 39b6 22be 563e 853c fd3c f8bd
000003a0: 1d24 c33b 760b 29be 1dd8 243d 43e2 6b3d
000003b0: 4999 9abd ec42 3b3d b258 803c 5dcb 063e
000003c0: 755f fb3a 7c18 c5bc 698d 273e 553d 973d
000003d0: 3f7c ac3e c7f4 653e 91b1 bc3d 0208 35bc
000003e0: f141 b3bc 05c5 a53d a237 fdbd a2c5 993c
000003f0: 1411 3f3e 5429 bfbd f88f 9ebe 3d6b 8ebd
-0.0695943 -0.01819751 0.023291988 -0.028144639 -0.055836968 0.1455185 -0.061973903 -0.19463071
-0.031603113 0.039458282 0.08916063 0.24279232 -0.24127327 0.02679199 0.017461421 -0.055930782
0.15355763 0.10982713 -0.11321945 0.18734884 -0.05065756 -0.23001996 0.08990665 0.009450664
0.12711479 -0.0725466 -0.0425925 -0.10921055 -0.05720724 0.29578 0.10267563 0.002050495
0.11351732 -0.21327674 -0.06982954 0.074390545 0.15431686 0.16188563 0.051237836 0.21502255
-0.16273825 0.34561804 -0.09060431 0.18088283 0.07299077 -0.15660281 -0.16790843 -0.020000279
-0.072617665 0.10960337 0.2338829 0.14784081 -0.089207835 0.042257108 0.21405669 0.2077431
0.04909138 -0.03179324 0.10104174 -0.13033183 0.13019842 0.07711797 0.124168836 0.18566118
0.23143308 -0.04892247 -0.027638009 -0.06735802 0.13375193 -0.03784245 -0.15076923 0.046678852
-0.034043416 0.17221564 -0.2792962 -0.099738315 0.06469735 -0.05747955 0.23840328 -0.11095446
-0.23190813 0.11451716 -0.08754362 0.013616797 0.082954735 -0.04023595 -0.08039621 0.14621264
0.02905403 0.0014239788 0.04945881 0.05715878 0.13615212 -0.1627655 0.18904567 0.19797239
-0.02248405 0.1784472 -0.14330003 0.18592674 0.028066251 -0.066621445 0.0011603197 0.11732614
-0.023177652 0.3799044 0.065377 0.010977836 -0.10226529 0.0047658277 -0.15332784 0.2073861
-0.036269415 0.050896365 0.086137004 0.208885 0.0045947665 -0.035394903 -0.051894207 0.13003673
0.05006508 -0.12955196 0.16028003 0.072683565 -0.045328718 -0.04566639 0.09146228 0.0831289
0.054906406 0.035564575 -0.008204473 -0.21515046 -0.013429356 -0.15263602 0.16794065 -0.030644806
0.017240355 -0.08018153 0.09324579 0.1424598 -0.06815491 0.14800118 0.004311744 0.07634222
0.059184782 0.05362045 -0.023022182 0.0022962212 -0.0012295078 0.07463881 0.10410039 0.21226901
0.119920194 -0.09450295 0.23643047 0.21308543 0.16175693 -0.10140475 0.13800025 0.11386698
0.17441365 -0.17501982 0.08231789 -0.124161765 -0.018150331 0.0045583677 -0.11888198 0.15131967
0.12467467 -0.079933286 0.06871166 0.20739454 0.11056221 -0.010023356 0.13856153 0.06483055
0.12367729 0.077132456 0.08414767 0.07627554 -0.020946661 -0.07056943 0.14908858 -0.2608004
-0.101004444 0.11414014 -0.026820553 -0.023305306 -0.2398897 0.014254116 0.040241286 0.13749315
0.12259847 0.1352295 -0.09649166 0.03659439 0.12963943 -0.027098762 0.0074733538 0.27012855
-0.26820567 -0.21601911 -0.020747239 0.25028363 0.0051236507 -0.045410175 0.23045614 0.16276473
0.09409686 0.105480894 -0.16230488 0.098030224 -0.025228411 -0.108754784 -0.06306438 -0.029772207
-0.019323736 0.07242008 0.11339133 0.029838616 -0.16795784 -0.036060784 0.003073376 0.047061417
-0.26775563 -0.47432926 -0.062457826 -0.120012194 0.17157543 -0.15889825 0.016265076 -0.121210076
0.005955233 -0.16508278 0.040245164 0.057588827 -0.07548768 0.04571812 0.015667293 0.13163514
0.0019178229 -0.024059527 0.16362537 0.07384745 0.33688542 0.22456656 0.092135556 -0.0110492725
-0.02188203 0.08094219 -0.12364127 0.018770996 0.18658859 -0.093340546 -0.30969214 -0.06954048

fc2.bias f4 [128]
00000000: c2b9 afbd a72b 8d3b 6f44 b33c efbc 63bc
00000010: 32a9 103d c5b1 b43b 73b1 16bd 4ad1 b13d
00000020: 8c50 903b 49b9 083c d750 553c 5c3d 04bd
00000030: a1a0 843d 6485 85bc aae2 9a3c 0eab 13bd
00000040: 1bec b9bc 98d1 8b3a db39 a43c d79a 90bc
00000050: 868a f1bc e0c6 463b fd71 6cbd 3373 85bd
00000060: f1ad c5bd b728 99bd 8cee ee3b 51a6 1b3b
00000070: 6e9b 003d ca60 483d 481d 13bd f709 5abb
00000080: 9365 4f3c ca7f 583c 9783 023c 0feb 09bd
00000090: 34d4 bf3b 0e00 453d 592d 34bd 71d2 ebbc
000000a0: 0729 63bb 5807 94bb 406f 24bd 72d3 093c
000000b0: 4340 57bd a165 c8bd 867e f73a 995c 14bd
000000c0: 4e79 033c d129 dfbc 013c 98bd 6595 0bbd
000000d0: b927 43bd dd8d e33c 3fd1 43bc e628 23bc
000000e0: d988 233a f131 b43c 42d1 503d 8aa0 7c3c
000000f0: 781e 55bd e879 e13c b708 c6bc 28f1 2639
00000100: 33f9 72bd aca0 a5bd a5ce 463d 5223 20bc
00000110: 86df c5bd fed6 9a3c 0ccf 4f3b cd10 87bc
00000120: a4d1 d23c b4d0 28bd 1512 27bd 690b 903c
00000130: 1541 aabd 3337 fa3b 210d dd3c 1e96 e53b
00000140: 3ebb 8abc 6838 443c 32d6 843c 1e31 cdbb
00000150: 4f9c 8e3b 1051 73bd 3b09 3a3c e614 36bc
00000160: fdcf 3f3c d667 93bb 2fd6 533d ae59 3e3d
00000170: 3efa dabd 5de6 0abd 700c 05bd 5c8e 98bd
00000180: e9b3 dfbc 8ea1 91bd 7c8f 81bd e5b2 53bd
00000190: dc22 dabc f3d7 3d3c 97c6 d3bc 9ee5 89bd
000001a0: 197e 81bc 3dd1 70bc f419 33bc ecd3 38bc
000001b0: e088 f2bc 0ee9 67bb f22d 8ebd 019c 94bd
000001c0: 0d6c 0a3b 79c4 14bd cc11 06bd 7781 403d
000001d0: 92eb c7bd 5731 8bbd 5a62 e73c 67e5 0ebd
000001e0: f2ac 453a fdc1 913b fcef 993c 6770 4cbd
000001f0: 4516 16bd df0b c8bc fae1 3dbd c419 a5bc
-0.08580352 0.0043081823 0.021883218 -0.013900026 0.035317607 0.005514356 -0.036790323 0.08682497
0.004404133 0.008344957 0.013019762 -0.03228508 0.0647595 -0.016298957 0.01890691 -0.036051802
-0.022695592 0.0010667322 0.020047119 -0.017651958 -0.029484998 0.003033094 -0.057725895 -0.06516113
-0.09652317 -0.07478469 0.0072916206 0.0023750255 0.03139823 0.04892043 -0.035916597 -0.00332701
0.0126584945 0.013214061 0.007965944 -0.033671435 0.005854154 0.048095755 -0.04398856 -0.02878687
-0.0034661905 -0.004517477 -0.04014516 0.008412229 -0.05255152 -0.09785009 0.0018882311 -0.03622112
0.008024527 -0.02724162 -0.0743332 -0.03407802 -0.047645304 0.027777607 -0.011951744 -0.009958481
0.00062383484 0.02199647 0.050980814 0.015419135 -0.05203101 0.02752395 -0.024174077 0.00015920831
-0.059319686 -0.08087286 0.048536915 -0.009774046 -0.09661774 0.018901344 0.0031709103 -0.016487503
0.02573473 -0.04121466 -0.04078873 0.017583566 -0.08313195 0.007635975 0.0269838 0.0070064208
-0.016934987 0.011976339 0.016215418 -0.0062619587 0.0043521295 -0.05940348 0.01135474 -0.011113381
0.011707303 -0.004498462 0.051717933 0.046472244 -0.10692261 -0.033911098 -0.032482564 -0.07449028
-0.027307468 -0.07110892 -0.063261956 -0.05168428 -0.02662795 0.011587131 -0.025851531 -0.06733249
-0.015807198 -0.014698324 -0.010931481 -0.011280995 -0.029606283 -0.0035386714 -0.06942357 -0.07256318
0.0021121532 -0.036320183 -0.032731816 0.046998467 -0.09761728 -0.0679652 0.02824514 -0.034886744
0.00075407245 0.004448174 0.018791191 -0.049911883 -0.03664233 -0.024419723 -0.046358086 -0.020153888

output.weight f4 [4, 128]
00000000: c030 31bf c0f3 63bd 64bf 35be 95f7 c9be
00000010: bc20 75be b193 2fbe e759 5b3e b4c3 c4be
00000020: 273c 38bd e033 1cbe b1ca 283e 24b3 223e
00000030: a858 69be afdf 343e c8a7 153f 1b80 91be
00000040: c37d d2bd b395 94be 0db9 43be 5f6a 67be
00000050: 6d36 403e 163e 0cbf 2eb3 493e 47d4 c8bc
00000060: b47b 973e ddbc debe b9c9 ec3e b671 35be
00000070: e364 a1be 5279 0d3f a63e 813e 395a 6e3e
00000080: 532d f23e e9d4 5e3f 9d51 f2bd 8ef3 3c3f
00000090: 63cf 6b3e 28fc a0be 8994 343f 2086 213e
000000a0: 145f ff3e 87fe 0b3f a207 083e 600d 8dbe
000000b0: 277a e9bd 4c8e 53bf 87fb 193e efcb d7bd
000000c0: 6eeb bc3e 39ad 99bc c1e4 b2bd 0d81 efbe
000000d0: 14f3 a23e be37 acbe bdaa aebd 0629 0c3f
000000e0: 4f7b 00bf f8ec 67be 1d34 c43e c27b 06bf
000000f0: 5c86 9cbd 078e 373d 36bd 2b3e b844 b13e
00000100: 1f60 f4bd 9765 e63e b83b 993e 5c8a 61be
00000110: e442 aabe e452 c73e 3584 0ebf 19e9 9bbe
00000120: 5870 08be 0ffb 4ebe ef26 133d 5558 eb3e
00000130: 3388 3dbe d08a a6bd 5c45 2f3e 4607 5e3e
00000140: 2177 e5bc 6128 543e fde4 143f 4f1b 35be
00000150: 2aa4 b9be 82e6 4dbf a5a3 bbbd 3cdc adbe
00000160: 1b86 95be 5b45 8abd 5e09 a73d 5e3b cdbe
00000170: 927f bc3d 1b0d 17bd f17a 0dbe 2587 013f
00000180: 3e3b 49be 9c47 c7be 631e 9ebe 7732 92be
00000190: c959 1f3e b8db 003f e6dc 17be cc97 863d
000001a0: dc32 a6be 0ec9 51be cc0a 433e 0e57 94be
000001b0: d66b af3e 409b a53d be54 32bf 305b 4abe
000001c0: ad94 10bc 0a64 b23e ca95 ce3e 5376 0d3f
000001d0: 8382 d33d 01bf debd 601e 7bbe c72f adbe
000001e0: f709 44be 3ec1 883e f942 843c 7edb 21bf
000001f0: ae60 223f 7fca d63e 7dce 7d3e 863d c23e
00000200: 635f 8bbe 7ff3 2b3d 019d 4dbd c323 c4be
00000210: 8559 33bf 19a1 18bf 4cac d3be a650 13bf
00000220: 9f52 e4be 79f0 93be ef69 513e d05b d83e
00000230: 1f41 dfbe bd0b 1d3f d99b 0b3e dd01 d4be
00000240: a5ab 69be a2d7 8e3e ca2d 833e 938e cf3e
00000250: 6446 b83e b978 653e 9be1 4abd 656c e6be
00000260: bd73 eebe 05fe 7c3d 7d2b 4cbd cc39 c0bc
00000270: a0db 62be 0309 82be acc2 e03e d4f8 df3e
00000280: 0ac3 e6be 653e 08bf e095 603d def8 ab3e
00000290: 3692 123f 02e3 1b3b 46a7 033e 14b3 ddbd
000002a0: 7247 fbbe ee20 3f3e 8339 243f 83d5 23bf
000002b0: 9344 a73e 2121 163e 35ec 9dbe 46dc f03e
000002c0: 574f c13e e2de 1cbf 0002 193f 7fb3 bd3d
000002d0: d007 87be e261 f5be 1f4f a63e 91eb e73e
000002e0: 1196 bfbe 277e 3fbf e53d ccbe e683 363e
000002f0: 47f8 f0be a9c1 e1be 3e1e 4ebe 4118 af3e
00000300: 4386 e6be a20a 49bf 7b0e e73e 6c6b 043e
00000310: 3a0a 173f 04d1 74be fedc b43e dc58 5fbe
00000320: 4dd9 6abf 2933 efbe 247f 24bf c20f 25bf
00000330: 4c86 2ebf 1b49 d9be 1bbe c53e 0315 323e
00000340: eefe d63e fb3e 1fbf c22f 163f 18e4 fdbe
00000350: fcdd fdbe d7c7 51be ef08 bbbe f1c9 59bd
00000360: 2274 a8be c764 c43e cf33 1dbf cb96 1fbf
00000370: ef5b 253e 9a84 f93b be64 c23e e542 0ebf
00000380: 924d 083e 1c83 c8be 8668 f2be 1e9f 0a3f
00000390: bc6a 1bbe e5b9 57bd bd71 cc3e 15a4 27bf
000003a0: 991e 773c 818c 743e 73d1 2bbf 8a82 9ebe
000003b0: 07d9 b8bd f5c9 183f e054 a8bd e997 d3bb
000003c0: 6acf c43e e693 063d c1de 443f c93e 993e
000003d0: c545 f8be 21ed 923e 49d6 7dbe e9c6 aa3e
000003e0: c9ef c13e 4cfa 20bf 8087 af3e e803 a93e
000003f0: f7d9 27be 9f5d 433f 31a0 ad3e 37e6 853c
-0.6921501 -0.05565238 -0.17748791 -0.39446703 -0.23938268 -0.17146184 0.21421014 -0.3843056
-0.04497924 -0.15254164 0.1648357 0.15888649 -0.22787726 0.17663454 0.5845914 -0.2841805
-0.102778934 -0.2902046 -0.1911356 -0.22599171 0.18770762 -0.54782236 0.19697258 -0.024515284
0.29586565 -0.43503466 0.46247652 -0.17719159 -0.31522283 0.55263245 0.2524311 0.23276605
0.47300205 0.87043625 -0.11831973 0.73809135 0.2302833 -0.3144238 0.70539147 0.15773821
0.49877226 0.5468525 0.13284162 -0.27549267 -0.11400252 -0.82639 0.15037356 -0.10536944
0.3689837 -0.018759357 -0.087350376 -0.46778145 0.3182608 -0.33636278 -0.085286595 0.54750097
-0.50188154 -0.2264899 0.3832101 -0.5253259 -0.076428145 0.044813182 0.16771397 0.3462274
-0.11932396 0.44999382 0.29928374 -0.22025436 -0.33254158 0.38930428 -0.5567048 -0.30451277
-0.13324106 -0.20212959 0.0359258 0.4596583 -0.18508987 -0.08131945 0.17116302 0.21682462
-0.028010907 0.20718528 0.5816191 -0.17686199 -0.3625806 -0.8042985 -0.09162072 -0.33957088
-0.29203877 -0.0675151 0.081560835 -0.40084356 0.092040196 -0.036877733 -0.1381643 0.5059684
-0.19651505 -0.3892182 -0.30882558 -0.28554127 0.15561594 0.50335264 -0.1483036 0.06571922
-0.32460678 -0.20486853 0.19047087 -0.28972667 0.3426196 0.08086252 -0.69660556 -0.19761348
-0.00882451 0.3484195 0.40348655 0.55258673 0.103276275 -0.10876275 -0.24523306 -0.33825514
-0.19144426 0.26709932 0.016145216 -0.63225543 0.6342877 0.41951367 0.247858 0.37937564
-0.27221212 0.041980263 -0.05019856 -0.38308534 -0.7005847 -0.59620816 -0.4134239 -0.57544935
-0.44594285 -0.28894404 0.20450567 0.42257547 -0.4360437 0.61346036 0.1363367 -0.41407672
-0.22819383 0.2789889 0.25620872 0.40538463 0.35991204 0.22409333 -0.04953156 -0.45004573
-0.46572676 0.06176569 -0.04984616 -0.02346506 -0.22154093 -0.253975 0.43898523 0.43744528
-0.45070678 -0.53220206 0.054830432 0.33588308 0.5725435 0.002378643 0.12856779 -0.10825172
-0.49077946 0.18664905 0.64150256 -0.6399767 0.32669505 0.14661075 -0.30844274 0.47043055
0.37755844 -0.6127759 0.59768677 0.09262752 -0.26373148 -0.4792624 0.3248224 0.4529691
-0.3741918 -0.7480187 -0.39890972 0.17823753 -0.4706442 -0.44093063 -0.20128724 0.34198192
-0.4502431 -0.7853185 0.45128235 0.12931603 0.5899998 -0.23907858 0.35324854 -0.21811241
-0.91737825 -0.4671872 -0.642565 -0.6447717 -0.6817367 -0.42438588 0.386216 0.17390828
0.4199137 -0.62205476 0.5866662 -0.49588084 -0.49583423 -0.20486389 -0.36530253 -0.053171102
-0.32901102 0.38358137 -0.6140718 -0.62339467 0.16148351 0.0076146843 0.37967485 -0.5557082
0.1331084 -0.3916253 -0.4734537 0.54149044 -0.15177435 -0.052667517 0.39930525 -0.65484744
0.015082979 0.23881723 -0.6711647 -0.30958968 -0.0902577 0.5968316 -0.082193136 -0.006457318
0.38439494 0.03285589 0.76902395 0.29930714 -0.4849073 0.2869654 -0.24788775 0.3335488
0.37878254 -0.6288192 0.34283066 0.33010793 -0.1639174 0.7631473 0.3391128 0.016345127

output.bias f4 [4]
00000000: 173b 40bb d8a1 393b a6eb 20ba 10a4 a33c
-0.0029332095 0.0028325226 -0.000613863 0.019975692

bn1.weight f4 [33]
00000000: 04fa 5c3f 2ee7 593f 9c86 2a3f 3408 863d
00000010: 1ecb 273f b898 eb3e 6803 753e 0c9a eb3e
00000020: 4166 1e3e f3c5 cb3e b80c 5abe a9b9 b53e
00000030: 01cb 8b3e 6d40 823f 8c43 153f c9f2 2b3f
00000040: 339d 4a3f c071 8f3f 580e 843f ca30 8c3f
00000050: 359d 163f 6871 f93e 48be 113f d10d 113f
00000060: 3842 f43e c644 243f 67e0 6a3f 249c 1b3f
00000070: 8e5c 8a3f e9ef 5e3f 80db e93e 6aee a93e
00000080: 6263 953f
0.86318994 0.8511838 0.6661165 0.06544533 0.6554431 0.46014953 0.2392708 0.46015966
0.15468694 0.3979946 -0.21293914 0.3549321 0.27303317 1.0175911 0.58306193 0.67167336
0.79146117 1.1206589 1.0316877 1.0952389 0.5883363 0.48719335 0.5693097 0.5666171
0.4770677 0.6416744 0.9174866 0.60785127 1.0809495 0.87084824 0.45675278 0.33189708
1.1670954

bn1.bias f4 [33]
00000000: 3c71 7a3d 919c 1bbe bcff 54bd b119 0a3e
00000010: ed4f 7abd 5306 0abc 1736 49bd fdeb 48bc
00000020: 760b 89bd ea7f 133b b02d eabc ea47 aabd
00000030: 732f bfbc 7695 303d c88e 533d e619 6ebc
00000040: a1fa 413d 0f1e 6d3e 31f8 d4bc 7df3 3b3d
00000050: cd5d c53c 8638 f23c ce79 0e3d 98fd 233b
00000060: bc32 803c 72c4 b0bc 8ded 463d 3991 343c
00000070: d52d 023d a580 a43e 3c02 b9bd 9a5c 5abc
00000080: e543 11be
0.061143145 -0.15196444 -0.0520017 0.13486363 -0.06111138 -0.008424359 -0.04912385 -0.012263295
-0.06691639 0.0022506663 -0.028586239 -0.08314498 -0.023338055 0.043111287 0.05164984 -0.014532542
0.04735816 0.23155998 -0.025997253 0.045886505 0.02409258 0.029567968 0.03478413 0.002502298
0.015649192 -0.021578047 0.04856639 0.011020952 0.03178199 0.32129398 -0.09033629 -0.013327742
-0.14186056

bn1.running_mean f4 [33]
00000000: 5f68 ecbe a2ae 2ec0 4c82 8f3e 9c4a 663f
00000010: 1408 5fbd 058a 32bc 5522 153d 1323 d5bc
00000020: ce10 8d3b 9efd 8b3c 3870 553d 8a95 593c
00000030: 2ab8 553d e406 34bf b80b 38c0 8d20 ee3e
00000040: a694 a93c 88ff 113f a5fc b93c 01da acbe
00000050: 0bfb 733d 7aa8 9cbc b638 333d f49e 3f3d
00000060: 704c 833d ba4b e33b 1db3 80bd fcff 7fbf
00000070: e1a8 a4bd 0000 0000 fcff 7f3f 0000 0000
00000080: 7e9d 3f3a
-0.4617338 -2.7294087 0.28029096 0.89957595 -0.054451063 -0.010897164 0.036409695 -0.026017701
0.004304982 0.017088708 0.052108973 0.013280282 0.052177586 -0.70323014 -2.8757153 0.4650921
0.020700764 0.57030535 0.022703478 -0.33760074 0.059565585 -0.019123305 0.043755256 0.04678245
0.06411064 0.0069365175 -0.06284163 -0.99999976 -0.080400236 0.0 0.99999976 0.0
0.000730954

bn1.running_var f4 [33]
00000000: 391f 5140 106e e43e 138c 9340 dcc3 bd3c
00000010: a1ee 583d 39e5 193c 82c7 ce3d 44c2 a93e
00000020: fb17 3e3d 93df ca3d 7379 f73f 95e2 7b3f
00000030: 44f5 3040 9f31 8941 4f32 c93f 47bf ac41
00000040: fcec c43d 2586 463e eb24 af3d 7c4e 3e3e
00000050: 2bfb 1c40 d85f 483f daff 1a3f 13d8 d640
00000060: d819 9d40 0b36 1041 c7c7 0342 0400 0000
00000070: dd53 f941 0400 0000 0400 0000 0400 0000
00000080: c599 a53e
3.2675307 0.4461522 4.610849 0.023164682 0.05296195 0.00939303 0.10096647 0.33156025
0.04640959 0.09905925 1.9333938 0.9839261 2.7649698 17.14923 1.5718478 21.593397
0.09615514 0.1938711 0.085519634 0.18584627 2.45283 0.78271246 0.6054665 6.7138762
4.9094048 9.013194 32.945095 6e-45 31.165949 6e-45 6e-45 6e-45
0.3234388
