checkpoint_critic.pth (torch_old, 170965 bytes, 9 tensors)

fc1.weight f4 [256, 33]
0	0xbd388b01	-0.04505444
1	0x3d3b86be	0.045782797
2	0xbec65b23	-0.38741407
3	0x3dcf5d6a	0.10125239
4	0x3e28c63e	0.16481873
5	0xbcdc75cc	-0.026911639
6	0x3dec6c24	0.11544064
7	0xbd561949	-0.052270208
8	0x3eee5c66	0.4655487
9	0x3dd7d120	0.10537934
10	0x3e832fe8	0.25622487
11	0xbe057a8d	-0.1303503
12	0xbec95f92	-0.39330727
13	0x3edacd81	0.42734912
14	0xbdda987e	-0.10673617
15	0xbee52491	-0.4475446
16	0xbea4d59e	-0.32194227
17	0x3df9410b	0.12170609
18	0x3f02a4d1	0.5103274
19	0x3e1f027f	0.15528296
20	0x3eff96b0	0.49919653
21	0xbce1b5f1	-0.027552577
22	0x3d402eaa	0.046919502
23	0x3e886aa8	0.26643872
24	0xbe30a685	-0.17251022
25	0xbec008a7	-0.375066
26	0xbf26831b	-0.650438
27	0xbe85c334	-0.2612549
28	0x3e751192	0.23932484
29	0xbee2bada	-0.4428318
30	0xbdf94212	-0.12170805
31	0xba2dcee8	-0.00066302577
32	0x3d84d385	0.06485657
33	0xbd8d20eb	-0.06891044
34	0xbf301d5f	-0.68794817
35	0xbd7ce70b	-0.061743777
36	0xbe0a6f09	-0.13518919
37	0xbc8010e6	-0.015633058
38	0xbc052147	-0.00812561
39	0xbe72494b	-0.23660772
40	0x3e0ce12f	0.13757776
41	0x3e673379	0.22578229
42	0xbe4a1809	-0.19735731
43	0x3dd375c1	0.10325194
44	0xbe50f2f5	-0.20405181
45	0x3ee0d8ff	0.43915555
46	0x3b2908f8	0.00257927
47	0xbebd28ad	-0.36945096
48	0xbed5a3d2	-0.41726547
49	0x3ee9d676	0.45671433
50	0xbe92dbe6	-0.28683394
51	0xbccf3f7a	-0.025298823
52	0x3e74e42d	0.23915167
53	0x3e6ed3a5	0.23322923
54	0x3df82945	0.121172465
55	0xbef6ae81	-0.4818001
56	0x3e9e258e	0.30888027
57	0x3e108353	0.14112596
58	0x3e3d8a6b	0.18509834
59	0x3cc284a5	0.02374489
60	0xbdd7eca6	-0.10543184
61	0x3e912c1d	0.28353968
62	0xbe989bb8	-0.29806304
63	0xbd5391e5	-0.051652808
64	0xbc7b5fd7	-0.015342674
65	0x3d9865a4	0.074412614
66	0xbc306d48	-0.010768242
67	0xbdae0f95	-0.08499066
68	0x3e87d8fd	0.26532736
69	0x3f0068a2	0.50159657
70	0xbea6fcf8	-0.32614875
71	0x3e48b324	0.19599587
72	0x3ec35c86	0.38156527
73	0x3d461ebc	0.048369154
74	0x3ec6571a	0.38738328
75	0x3f1159d1	0.56777674
76	0x3f7e2b4d	0.9928482
77	0x3eb11fad	0.3459448
78	0xbe7b4d01	-0.24541093
79	0x3e92011d	0.28516474
80	0xbe87223a	-0.263933
81	0x3d8e875a	0.0695941
82	0x3f366b88	0.7125783
83	0xbf1be2f8	-0.608932
84	0xbcb198f6	-0.021679383
85	0x3e829321	0.25502875
86	0xbe2b77be	-0.16744897
87	0x3e54b966	0.20773849
88	0xbecb080c	-0.39654577
89	0xbebfe89f	-0.37482163
90	0xbec0ef7b	-0.3768271
91	0x3d27ee07	0.040998485
92	0x3d834fbd	0.06411693
93	0xbe564de1	-0.20928146
94	0xbe3cefc0	-0.18450832
95	0xbe976ed1	-0.29576734
96	0x3d25ba11	0.04046065
97	0x3ccb8679	0.024844395
98	0xbcfe7fcb	-0.031066796
99	0xbe5534fa	-0.2082099
100	0x3ea93efd	0.3305587
101	0x3d85be96	0.06530492
102	0x3d71e180	0.059052944
103	0x3b1a14c0	0.0023510903
104	0x3eeefcda	0.46677285
105	0x3e0764be	0.13222024
106	0x3d6cb2aa	0.057787575
107	0x3ec3eadf	0.3826513
108	0x3e139c8c	0.14415187
109	0xbe8493ec	-0.25894105
110	0x3c6b2fea	0.014354685
111	0x3e918970	0.2842517
112	0xbf1a9afd	-0.60392743
113	0xbebcdc24	-0.36886704
114	0x3ee4424e	0.44581836
115	0x3ae5c664	0.0017530438
116	0xbde87dc4	-0.11352113
117	0xbde16b19	-0.110067554
118	0x3cb9c3a1	0.022676291
119	0xbd38ca0c	-0.045114562
120	0x3e8ade25	0.27122608
121	0x3d180525	0.03711428
122	0xbe90e996	-0.28303212
123	0x3cec4a43	0.028844004
124	0x3ea06acd	0.31331483
125	0x3ce48f46	0.02790035
126	0xbe84bf44	-0.25927174
127	0xbf173a7f	-0.5907363
128	0xbe7c8da5	-0.24663408
129	0xbd80b1f1	-0.0628394
130	0x3dd293f2	0.102821246
131	0xbe660211	-0.22461726
132	0xbf0f86bf	-0.5606498
133	0x3ed512a1	0.41615775
134	0xbe852d63	-0.2601119
135	0xbea50b9a	-0.32235414
136	0xbe407726	-0.18795452
137	0x3db0d58c	0.08634481
138	0x3dc6372e	0.096784934
139	0x3d5a8a5c	0.053354606
140	0x3e1057d5	0.14096005
141	0xbe9038dc	-0.2816838
142	0xbeacc31f	-0.33742616
143	0xbc4924e1	-0.012276859
144	0xbc2b1941	-0.010443033
145	0xbe849ac0	-0.25899315
146	0xbdfda3cf	-0.1238476
147	0x3ddc83b5	0.107673086
148	0x3eff4b3d	0.4986209
149	0xbdd6c352	-0.10486473
150	0x3eb675c1	0.35636714
151	0x3c5898d1	0.013220028
152	0x3ee21475	0.44156232
153	0xbde3225e	-0.110905394
154	0x3e2ee042	0.17077735
155	0xbf005794	-0.50133634
156	0x3ca9c70d	0.020724798
157	0xbe89f6ac	-0.26946008
158	0xbd21c37a	-0.03949306
159	0xbf1fcc78	-0.6242137
160	0x3e427147	0.18988524
161	0xbf117cbb	-0.5683095
162	0xbe7a9712	-0.24471691
163	0x3c506d70	0.012721404
164	0x3ee51ea0	0.44749928
165	0x3e342d27	0.17595349
166	0xbceb9c36	-0.02876101
167	0x3ec72e64	0.3890258
168	0xbe9c1c3b	-0.30490288
169	0x3eaaf193	0.33387432
170	0x3f0b4b72	0.54411995
171	0x3eb1e347	0.3474371
172	0xbe692bbb	-0.22770588
173	0x3e85bfab	0.26122794
174	0xbd559d4d	-0.052151967
175	0x3e0b67de	0.13613841
176	0xbe853080	-0.26013565
177	0x3ecf6004	0.40502942
178	0xbda823ad	-0.082099296
179	0xbc8f9b78	-0.017530188
180	0xbeaa47c6	-0.33257884
181	0x3efaacb0	0.48959875
182	0xbe47f9d7	-0.195289
183	0x3f1e6023	0.61865443
184	0xbf5ee9f7	-0.8707575
185	0x3ec9c6c3	0.39409456
186	0xbcf1297e	-0.02943873
187	0x3daf51fb	0.085605584
188	0xbe9a3c40	-0.30124092
189	0x3db5caca	0.088765696
190	0xbeb72ded	-0.35777226
191	0x3db1f027	0.086883835
192	0xbeb786f7	-0.35845158
193	0x3d0e737d	0.034778107
194	0xbe7f3246	-0.24921522
195	0xbcb1419b	-0.021637728
196	0xbd9bf5ee	-0.07615267
197	0xbdf4f77e	-0.11961268
198	0x3d43cae4	0.047800913
199	0x3e519c85	0.20469864
200	0x3e8f2813	0.27960262
201	0xbe1bfc4f	-0.15232967
202	0xbe4773ca	-0.19477764
203	0xbdd7b528	-0.105326
204	0x3ec22333	0.3791748
205	0x3e1eaefd	0.1549644
206	0x3d693160	0.056931853
207	0xbd7d18db	-0.061791282
208	0x3d31c4fe	0.043400757
209	0xbec12354	-0.37722266
210	0xbe85e4bc	-0.26151073
211	0xbec72c89	-0.38901165
212	0xbd93ff1b	-0.07226392
213	0xbe0f6127	-0.14001904
214	0xbdf83716	-0.12119882
215	0xbd853901	-0.06505013
216	0xbd16a11e	-0.036774747
217	0x3e78f594	0.2431243
218	0x3e889943	0.2667943
219	0xbe399298	-0.18122327
220	0xbc861ed2	-0.016372118
221	0xbe0701d7	-0.13184296
222	0xbf14ab9e	-0.5807437
223	0xbf25fb57	-0.6483664
224	0x3e227572	0.15865114
225	0xbec4918b	-0.3839229
226	0x3eda43b1	0.4262977
227	0xbe99b1b5	-0.30018392
228	0xbdc3500c	-0.09536752
229	0xbdc59946	-0.09648375
230	0x3e74ff47	0.23925506
231	0x3e94aacd	0.2903656
232	0x3ec4ba69	0.3842347
233	0x3a978a40	0.0011561587
234	0xbd8d9a49	-0.06914193
235	0x3e3a0221	0.18164875
236	0x3cda2d9d	0.026633078
237	0x3dd2609e	0.102723345
238	0xbe151476	-0.14558586
239	0xbe9075ac	-0.28214777
240	0x3e98e905	0.2986528
241	0x3e4359e4	0.1907726
242	0x3d07dd3d	0.033169974
243	0x3eb88749	0.36040714
244	0xbf64894e	-0.8927201
245	0x3d899447	0.06717735
246	0x3cf8df58	0.030379936
247	0xbdb95fea	-0.09051497
248	0xbe59d81c	-0.21273845
249	0xbe6850e7	-0.22687112
250	0x3e2a8277	0.16651331
251	0xbdfa98f3	-0.12236204
252	0xbe8a6f85	-0.27038208
253	0x3e571d3c	0.21007246
254	0xbf195773	-0.5989906
255	0xbe3221f7	-0.17395769

fc1.bias f4 [256]
0	0xbeac10b2	-0.33606488
1	0xbe02197c	-0.12705034
2	0xbe2f5317	-0.1712154
3	0xbe50ad82	-0.20378688
4	0xbf00b18b	-0.5027091
5	0xbea03cf4	-0.31296504
6	0xbebaaaef	-0.36458537
7	0xbe97d6b8	-0.29656005
8	0xbe3e8924	-0.18607002
9	0xbefafc91	-0.49020818
10	0xbe1190e3	-0.14215426
11	0xbe46bc1c	-0.19407696
12	0xbeef44ef	-0.4673228
13	0xbdf4a72c	-0.11945948
14	0xbeddf17e	-0.43348306
15	0xbe288511	-0.16457011
16	0xbed0cb6b	-0.40780196
17	0xbe92aa1f	-0.28645417
18	0xbe4e92f9	-0.20173253
19	0xbe2c1358	-0.16804254
20	0xbef0eb86	-0.4705469
21	0xbee423b1	-0.4455848
22	0xbe20fffd	-0.15722652
23	0xbef5a717	-0.47979042
24	0xbe4085b7	-0.18801008
25	0xbe167825	-0.14694269
26	0xbef43f6d	-0.4770464
27	0xbe5ac6c5	-0.21364887
28	0xbf095b7d	-0.53655225
29	0xbede4089	-0.4340861
30	0xbe8b8c77	-0.27255604
31	0xbe5e600b	-0.21716325
32	0xbe189a8d	-0.14902706
33	0xbeb3bdd6	-0.3510577
34	0xbddcd1a9	-0.10782177
35	0xbea4490b	-0.32086977
36	0xbecc4a5a	-0.39900476
37	0x3db3dad9	0.08781976
38	0xbe59776f	-0.21236967
39	0xbe8f37b2	-0.2797218
40	0xbe5b000c	-0.21386737
41	0xbe65a458	-0.22425973
42	0xbe333d4b	-0.1750385
43	0xbe9b5335	-0.3033692
44	0xbf159a7d	-0.58438855
45	0xbea0f82b	-0.31439337
46	0xbd8717a4	-0.06596306
47	0xbec14020	-0.37744236
48	0xbe1c6256	-0.15271887
49	0xbca99f68	-0.020705894
50	0xbe8c1103	-0.2735673
51	0xbed39dc5	-0.41331306
52	0xbeac6593	-0.33671245
53	0xbed007d9	-0.40630987
54	0xbed2b05c	-0.41150177
55	0xbe2e8f4e	-0.17046854
56	0xbedafdcd	-0.4277176
57	0xbe35eb31	-0.177655
58	0xbdc1aa0f	-0.09456264
59	0xbec4b2db	-0.38417706
60	0xbf211715	-0.62925845
61	0xbec2eb67	-0.38070223
62	0xbe9ed2ae	-0.3102011
63	0xbea125e6	-0.31474227
64	0xbf0932c3	-0.5359308
65	0xbeafb7f9	-0.34320047
66	0xbe973b0b	-0.29537234
67	0xbed4d3b6	-0.41567773
68	0xbe6bd679	-0.23031034
69	0xbe6c5d2a	-0.23082414
70	0xbee5bdea	-0.44871455
71	0xbed3b08a	-0.41345626
72	0xbe0bc26c	-0.13648385
73	0xbeb788e1	-0.35846618
74	0xbe95f33e	-0.29287142
75	0xbee88fe4	-0.4542228
76	0xbeb86fe2	-0.3602286
77	0xbeb3fa6b	-0.3515199
78	0xbe2db0cf	-0.16961978
79	0x3d987ec5	0.07446054
80	0x3bc4b5d2	0.00600312
81	0xbe92cbee	-0.2867121
82	0xbedfe654	-0.43730414
83	0xbe8b1fc4	-0.27172673
84	0xbedcd680	-0.431324
85	0xbe86a6f5	-0.26299253
86	0xbe8ecaa6	-0.27888983
87	0xbeb7f077	-0.35925648
88	0xbebda23c	-0.37037838
89	0xbedd20c8	-0.43189073
90	0xbeb4deed	-0.3532633
91	0xbe55f870	-0.20895553
92	0xbc24bf1e	-0.0100553315
93	0xbe9cddab	-0.3063787
94	0xbec5ba91	-0.386189
95	0xbf036014	-0.5131848
96	0xbe9f5c57	-0.31125137
97	0xbee76792	-0.45196205
98	0xbf04e6fb	-0.5191495
99	0xbe7b2341	-0.24525167
100	0xbee7c700	-0.45269012
101	0xbe898e4d	-0.2686638
102	0xbdd7372c	-0.1050857
103	0xbe586749	-0.2113315
104	0xbeb2b130	-0.34900808
105	0xbedf7188	-0.43641305
106	0xbe920fc9	-0.28527668
107	0xbe63ccc3	-0.22246079
108	0xbec08295	-0.37599626
109	0xbe11c22b	-0.14234225
110	0xbee130fd	-0.43982688
111	0xbeae46a8	-0.3403828
112	0xbe9f208b	-0.31079516
113	0xbe6bf2df	-0.23041867
114	0xbf1b9200	-0.60769653
115	0xbf05c4bf	-0.52253336
116	0xbe5e1d78	-0.21690929
117	0xbe8058f1	-0.25067857
118	0xbed82d07	-0.42221853
119	0xbea470d3	-0.32117328
120	0xbdd8946b	-0.105751835
121	0xbf0ba6ee	-0.5455159
122	0xbe63d807	-0.22250377
123	0xbf0a8445	-0.5410808
124	0xbe2ddd09	-0.1697885
125	0xbea34b02	-0.31893164
126	0xbea368f4	-0.3191601
127	0x3e21fd48	0.15819275
128	0xbed108d1	-0.4082704
129	0xbec1c8a7	-0.37848398
130	0xbeed8bb8	-0.4639566
131	0xbec9fc98	-0.39450526
132	0xbef21cbb	-0.47287545
133	0xbea5c066	-0.3237335
134	0xbebc2771	-0.3674884
135	0xbe3af7d6	-0.18258604
136	0xbecdeffb	-0.40222153
137	0xbede9dc6	-0.43479747
138	0xbed4e95f	-0.41584298
139	0xbe62a0e4	-0.22131687
140	0xbecec84a	-0.40387183
141	0xbeb30137	-0.34961864
142	0xbec6c93c	-0.38825405
143	0xbef72227	-0.48268244
144	0xbe1c8a5e	-0.15287158
145	0xbd9a2712	-0.07526983
146	0xbf0d3281	-0.5515519
147	0xbe8f1f5c	-0.27953613
148	0xbec74e6f	-0.38927028
149	0xbe72bc09	-0.23704542
150	0x37d2b200	2.5116839e-05
151	0xbe792a30	-0.243325
152	0xbe318fb4	-0.17339975
153	0xbefcb5e1	-0.49357513
154	0xbe79863e	-0.24367616
155	0xbe9d125e	-0.30678076
156	0xbeac416c	-0.33643663
157	0xbe806469	-0.25076607
158	0xbe834f87	-0.25646612
159	0xbe93ecdd	-0.2889165
160	0xbe8a6ee1	-0.2703772
161	0xbdb133a4	-0.08652428
162	0xbe4e7af6	-0.20164093
163	0xbe3832f9	-0.17988195
164	0xbea6d912	-0.32587487
165	0xbeaf0933	-0.34186706
166	0xbd66d492	-0.056355067
167	0xbe8ddd99	-0.27708128
168	0xbd324b67	-0.04352894
169	0xbe98b373	-0.2982441
170	0xbe828239	-0.25489977
171	0xbe49a547	-0.19691955
172	0xbe59e17c	-0.21277422
173	0x3ba314fc	0.0049768668
174	0xbedd039a	-0.4316681
175	0xbe024e7c	-0.12725252
176	0xbe58e10c	-0.21179599
177	0xbe47552e	-0.19466087
178	0xbe6ccdda	-0.23125401
179	0xbe779066	-0.24176177
180	0xbec44787	-0.3833582
181	0xbe8f9061	-0.2803984
182	0xbe6a05a4	-0.22853714
183	0xbe5a2b9c	-0.21305698
184	0xbd8d6dab	-0.06905683
185	0xbdde04a3	-0.10840728
186	0xbe8960c9	-0.26831654
187	0xbe9df42f	-0.3085036
188	0xbef964a8	-0.48709607
189	0xbe35bc0e	-0.17747518
190	0x3e53494a	0.20633426
191	0xbe87ac54	-0.26498663
192	0xbe91495d	-0.28376284
193	0xbf065a15	-0.52481204
194	0xbe9dfaea	-0.30855495
195	0xbd270182	-0.040772922
196	0xbeb3397c	-0.35004795
197	0xbe7d95ac	-0.24764127
198	0xbe0ba5ae	-0.1363742
199	0xbe836f1f	-0.25670716
200	0xbd0fed69	-0.03513852
201	0xbec8bc34	-0.39206088
202	0xbeb29f9c	-0.34887397
203	0xbcdd48b0	-0.0270122
204	0xbe8093f5	-0.25112882
205	0xbe441b6c	-0.19151086
206	0xbe95f580	-0.29288864
207	0xbeaf76a0	-0.3427019
208	0xbef7b35f	-0.48379037
209	0xbebf587f	-0.37372205
210	0xbea52662	-0.32255846
211	0xbe61edbb	-0.22063343
212	0xbeb12417	-0.34597847
213	0xbf031ca8	-0.512156
214	0xbe9ecf65	-0.31017604
215	0xbec0872b	-0.37603125
216	0xbcb1c64b	-0.021700999
217	0xbf104f29	-0.5637079
218	0xbe8eae31	-0.27867272
219	0xbeb2ba25	-0.34907642
220	0x3bbd2002	0.005771638
221	0xbeb3fd43	-0.3515416
222	0xbdecb6a3	-0.11558273
223	0xbe96bcca	-0.2944091
224	0xbeaeb647	-0.34123442
225	0xbedb2ffe	-0.42810053
226	0xbe5762da	-0.21033803
227	0xbe59d18a	-0.21271339
228	0xbec3c35c	-0.38234985
229	0x3e7aff94	0.24511558
230	0xbe4445e5	-0.19167288
231	0xbea71a80	-0.32637405
232	0xbe393780	-0.18087578
233	0xbea05960	-0.31318188
234	0xbdc6084d	-0.09669552
235	0xbe8dbc3c	-0.27682674
236	0xbe3870aa	-0.18011728
237	0xbe71d8da	-0.23617879
238	0xbeaa7650	-0.3329339
239	0xbe6f9052	-0.23394898
240	0xbeb1fbaa	-0.34762317
241	0xbe9f3a2f	-0.31099078
242	0xbed73e26	-0.42039603
243	0xbe82180f	-0.2540898
244	0xbe8926ce	-0.26787418
245	0xbea6c07f	-0.32568738
246	0xbeacb210	-0.337296
247	0xbe1af86f	-0.15133832
248	0xbe84fda4	-0.25974762
249	0xbe9f73e9	-0.3114312
250	0xbe736fdd	-0.23773141
251	0xbea7c013	-0.32763728
252	0xbe3f3677	-0.1867312
253	0xbe4f1a72	-0.20224932
254	0xbe7e3a2b	-0.24826877
255	0xbeafe869	-0.34357002

fc2.weight f4 [128, 260]
0	0x3dd4549e	0.10367702
1	0x3e2f2b33	0.17106323
2	0xbe3cb836	-0.18429646
3	0x3db8eeda	0.09029932
4	0xbe85bdaa	-0.26121265
5	0x3ea43350	0.32070398
6	0x3e7d7c44	0.24754435
7	0xbc2d9966	-0.010595655
8	0xbedb0810	-0.4277959
9	0xbe8c6f0a	-0.27428466
10	0xbedcc54e	-0.43119282
11	0xbcbb9524	-0.022898264
12	0xbeb3cdbe	-0.35117906
13	0xbc0724d5	-0.0082485275
14	0xbdcf5361	-0.10123325
15	0x3e7b576c	0.24545068
16	0xbe97af8a	-0.29626113
17	0x3c091e43	0.008369031
18	0x3e62d3a7	0.22151051
19	0x3e7e1d10	0.24815774
20	0xbf25de33	-0.64792174
21	0x3db70f5b	0.08938476
22	0xbd70ac6d	-0.058758188
23	0xbe6f34f7	-0.23360048
24	0xbe57de0d	-0.210808
25	0xbd3c190f	-0.045922335
26	0xbf433b4f	-0.7626237
27	0xbd605fb5	-0.054778773
28	0xbe22163c	-0.15828794
29	0x3ea1aad4	0.31575644
30	0xbf7ec122	-0.9951345
31	0xbe83d10b	-0.25745425
32	0xbf11a7ae	-0.56896484
33	0xbf3476e7	-0.7049393
34	0x3ec502e3	0.38478765
35	0x3e38fdca	0.18065563
36	0x3eb6d8af	0.3571219
37	0xbea3b460	-0.31973553
38	0xbe0709f2	-0.13187388
39	0xbfb68479	-1.4259177
40	0xbe9e63da	-0.30935556
41	0x3de3033c	0.11084601
42	0xbe42f2f2	-0.19037989
43	0x3e60c07c	0.21948427
44	0xbd8f3310	-0.06992161
45	0xbd4a406c	-0.049377844
46	0x3dd7508f	0.10513412
47	0xbe7006ca	-0.2344009
48	0x3de13c53	0.10997834
49	0x3d56f10a	0.052475967
50	0xbd8b7164	-0.06808737
51	0x3ee72b25	0.45150104
52	0xbe1502a3	-0.14551787
53	0xbf03c113	-0.5146648
54	0x3e74fdd8	0.23924959
55	0xbe68ec0f	-0.22746299
56	0xbd058081	-0.032593254
57	0xbd66e0b0	-0.056366622
58	0xbed9b96a	-0.42524272
59	0xbe6f4648	-0.23366654
60	0xbce36c7c	-0.02776169
61	0xbee8a9f4	-0.45442164
62	0xbd9193f5	-0.07108299
63	0x3ed59081	0.4171181
64	0xbd26129d	-0.040545095
65	0x3ea334c8	0.31876206
66	0x3d6febae	0.05857437
67	0x3d476768	0.0486826
68	0x3e5a7089	0.21331991
69	0x3d48dfdf	0.049041625
70	0xbe31f562	-0.17378762
71	0xbf05a8de	-0.52210796
72	0xbee31929	-0.44355133
73	0xbdfc34b8	-0.12314743
74	0x3db5d7a8	0.08879024
75	0x3e7e9230	0.24860454
76	0xbdc3b1d5	-0.09555403
77	0x3ee0ea23	0.43928632
78	0x3eca8baf	0.39559695
79	0xbdb9231a	-0.09039898
80	0xbda23bcc	-0.079215616
81	0xbc884257	-0.016633196
82	0x3ea6d90a	0.32587463
83	0xbeaf8c1e	-0.34286588
84	0x3d9b4c3a	0.075828984
85	0xbead3788	-0.3383143
86	0xbe55c7e5	-0.20877035
87	0x3ecc0766	0.39849395
88	0xbe47cac2	-0.1951094
89	0x3df42fd0	0.11923182
90	0xbf775816	-0.96618783
91	0xbea09b1e	-0.31368345
92	0x3df1a34e	0.11798726
93	0xbe96cad8	-0.29451632
94	0xbe0a3991	-0.13498522
95	0xbe66309e	-0.22479483
96	0xbec197a4	-0.37811005
97	0xbf4ca227	-0.79934925
98	0xbed130f0	-0.4085765
99	0xbe8aa1db	-0.2707661
100	0x3ea400af	0.32031772
101	0x3d4c5f62	0.04989565
102	0x3be26164	0.0069085825
103	0x3eab5a50	0.3346734
104	0xbd831dc9	-0.064021654
105	0x3e85aa43	0.26106462
106	0x3f2c4a54	0.67300916
107	0x3e33aefb	0.17547219
108	0xbe97e5c2	-0.2966748
109	0x3e57a876	0.21060356
110	0x3ea3717b	0.31922516
111	0xbdc6fdf0	-0.097164035
112	0x3d436eea	0.047713198
113	0xbed052aa	-0.40688068
114	0xbe1a03e8	-0.15040553
115	0x3ddd4290	0.108037114
116	0xbe8b7b05	-0.27242294
117	0x3e0f4c43	0.13993935
118	0xbd2ac6bc	-0.041693434
119	0xbf13d614	-0.5774853
120	0xbecbc104	-0.39795697
121	0xbf098798	-0.53722525
122	0xbe6a63bf	-0.22889613
123	0xbe64fe30	-0.2236259
124	0xbc99f587	-0.018793834
125	0xbf007380	-0.5017624
126	0xbc64d815	-0.013967534
127	0xbed190df	-0.4093084
128	0x3b909571	0.004412346
129	0xbee7b445	-0.45254722
130	0x3d9975a4	0.07493141
131	0x3e8c5074	0.2740513
132	0xbde0755c	-0.109598845
133	0xbe9e6f71	-0.30944398
134	0xbe2df1d8	-0.16986787
135	0xbf371982	-0.71523297
136	0xbf2256fb	-0.6341397
137	0xbeec8c9a	-0.4620102
138	0xbe9fcd12	-0.31211144
139	0xbd82c12f	-0.06384503
140	0xbdbe3390	-0.092871785
141	0x3e095b38	0.13413703
142	0xbe5233f4	-0.20527631
143	0x3dc45705	0.0958691
144	0xbe76a013	-0.24084501
145	0x3dcfdff6	0.10150139
146	0x3d98b14c	0.07455692
147	0xbe87def4	-0.26537287
148	0x3e95e372	0.2927509
149	0xbe85ffba	-0.26171666
150	0x3ec0d9b6	0.376661
151	0xbe239a5f	-0.15976857
152	0xbe7e040c	-0.24806231
153	0x3d454e32	0.048170276
154	0x3e854e65	0.26036373
155	0xbd136343	-0.035983335
156	0x3ef490d1	0.47766736
157	0xbe80290d	-0.2503132
158	0xbe1a720f	-0.15082572
159	0xbc0f255a	-0.008736933
160	0xbea905ce	-0.3301224
161	0x3e1fe4bc	0.15614599
162	0x3f02742c	0.50958514
163	0xbeb89904	-0.36054242
164	0xbf33796b	-0.70107144
165	0xbd9b4ad5	-0.075826325
166	0xbe2662f5	-0.16248687
167	0x3eaf2ede	0.34215444
168	0x3e96f634	0.29484713
169	0x3e62ffe6	0.2216793
170	0x3eb0d6d1	0.34538892
171	0xbe8ffa6e	-0.2812075
172	0x3e1e8649	0.15480913
173	0x3ce93206	0.028466236
174	0xbe947c87	-0.29001257
175	0xbebc8614	-0.36821043
176	0xbe82abe3	-0.25521764
177	0x3d3840a0	0.044983506
178	0x3ede64b9	0.4343622
179	0x3f112846	0.5670208
180	0x3e40ab13	0.1881526
181	0xbf45ce01	-0.7726746
182	0xbe153d54	-0.14574176
183	0xbea59627	-0.3234112
184	0xbd91d91b	-0.07121488
185	0xbcd35b20	-0.025800288
186	0x3ee805e6	0.45317
187	0xbe85625b	-0.26051602
188	0x3e79f004	0.24407965
189	0xbe12ffa3	-0.1435533
190	0x3e2bfe26	0.16796169
191	0x3e0ce46b	0.1375901
192	0x3d44d4b1	0.0480544
193	0x3d79511f	0.06086838
194	0x3e14d5c0	0.14534664
195	0xbe3313fb	-0.1748809
196	0x3e87bca8	0.2651112
197	0xbe54faed	-0.20798846
198	0x3dc9e257	0.09857624
199	0xbf0cae40	-0.54953384
200	0xbe8cac3d	-0.27475157
201	0x3e748612	0.23879269
202	0x3c7a88f1	0.015291438
203	0xbf94f9e2	-1.1638758
204	0xbd6ed739	-0.05831072
205	0xbf1425b9	-0.5787006
206	0x3e8313cf	0.2560105
207	0xbea89b41	-0.3293095
208	0x3f76280f	0.96154875
209	0x3e1690a1	0.14703609
210	0xbd08eed0	-0.033430874
211	0xbd6ee939	-0.058327887
212	0x3eb41fa8	0.35180402
213	0xbe693c39	-0.2277688
214	0xbd00b88c	-0.031425998
215	0x3c7b786e	0.015348537
216	0x3d9c5298	0.07632941
217	0x3e05c14e	0.13062021
218	0xbf32ecbe	-0.6989249
219	0x3ebc91cd	0.36829987
220	0xbf35b086	-0.7097248
221	0x3ec7029e	0.38869184
222	0xbcb66167	-0.022263242
223	0x3d08b3e1	0.03337467
224	0xbe55d0cd	-0.20880432
225	0x3dc583f0	0.09644306
226	0xbeb215e8	-0.34782338
227	0xbda556ae	-0.080731735
228	0xbf00e7d8	-0.50353765
229	0xbe46f82a	-0.19430605
230	0xbe0c9942	-0.13730338
231	0xbbd74063	-0.006568955
232	0x3d862ac2	0.06551124
233	0x3db97030	0.09054601
234	0xbe0cf35c	-0.13764709
235	0xbedfa780	-0.4368248
236	0xbe8db93a	-0.2768038
237	0xbd60bee4	-0.054869547
238	0x3f1308aa	0.57435095
239	0x3f18d449	0.5969892
240	0xbd4c1e89	-0.049833808
241	0x3bc4614b	0.0059930435
242	0x3c46fbb1	0.012144969
243	0x3e400005	0.18750007
244	0xbf43ce29	-0.7648645
245	0x3e89a18f	0.26881072
246	0xbeca1d92	-0.39475685
247	0x3d901d33	0.07036819
248	0x3e5f88f8	0.21829593
249	0xbdca4116	-0.098756954
250	0xbdb157c9	-0.08659322
251	0xbed3eaca	-0.41390067
252	0xbe49e370	-0.19715667
253	0xbee46106	-0.44605273
254	0xbf416e4f	-0.7555894
255	0xbdf8f336	-0.12155764

fc2.bias f4 [128]
0	0x3eb01988	0.3439448
1	0x3db28794	0.08717266
2	0xbe806deb	-0.2508386
3	0x3f159d4b	0.58443135
4	0xbe508e42	-0.20366767
5	0x3f061b76	0.5238565
6	0x3e7ac6c0	0.2448988
7	0x3eebc721	0.4605036
8	0xbeae488e	-0.3403973
9	0x3ed55b10	0.41671038
10	0xbe631671	-0.2217653
11	0x3d875687	0.06608301
12	0x3d13764a	0.03600148
13	0xbe73c10d	-0.23804112
14	0xbe03ac06	-0.1285859
15	0xbe978fe4	-0.29601967
16	0x3e940611	0.28910878
17	0xbe6eb308	-0.23310483
18	0x3e4b7d31	0.19871975
19	0x3da9024f	0.082523935
20	0xbded6dd2	-0.11593212
21	0x3e5874bc	0.2113828
22	0x3f168b8b	0.58806676
23	0x3ebc4bde	0.36776632
24	0x3ec0161b	0.37516865
25	0xbe07a48e	-0.13246366
26	0xbe55edc1	-0.20891477
27	0xbeaad80f	-0.33367965
28	0xbe3b2583	-0.18276028
29	0xbd132061	-0.03591955
30	0xbeb8ec68	-0.36117864
31	0xbe884d16	-0.26621312
32	0xbd11a62f	-0.035558876
33	0xbe869c5c	-0.26291168
34	0xbe0a4471	-0.13502671
35	0xbe2ff597	-0.17183529
36	0x3f163f2f	0.5869016
37	0xbe731da5	-0.23741777
38	0x3ecb9bbe	0.3976726
39	0xbe6f9cd3	-0.23399667
40	0x3f29fceb	0.6640155
41	0xbe2cd181	-0.16876794
42	0x3e9462c1	0.28981593
43	0xbeb5332d	-0.35390607
44	0x3e6544b6	0.22389492
45	0xbe82197e	-0.25410074
46	0xbed26d1f	-0.41098878
47	0xbe4938e3	-0.19650607
48	0xbe7d8142	-0.24756339
49	0x3efaaad3	0.48958454
50	0xbea1847e	-0.31546396
51	0x3ea76512	0.32694298
52	0xbdb5e44d	-0.088814355
53	0x3e7cc810	0.24685693
54	0xbe9ce4ab	-0.3064321
55	0xbea6cb91	-0.32577184
56	0x3ec52f85	0.38512817
57	0xbea7d993	-0.32783183
58	0x3debb02f	0.11508214
59	0x3e82ee32	0.25572354
60	0x3e5e9f21	0.2174039
61	0xbeaebd68	-0.3412888
62	0xbdee5213	-0.11636748
63	0x3ed2a901	0.41144565
64	0x3f1db975	0.6161111
65	0xbe67ea7d	-0.22648044
66	0xbe4c1363	-0.1992927
67	0x3eb7a622	0.35868937
68	0x3ed83b93	0.42232952
69	0xbe218b58	-0.15775812
70	0xbe8449ea	-0.25837642
71	0xbdea3375	-0.11435596
72	0xbe84c6a0	-0.2593279
73	0x3f022f99	0.5085388
74	0xbdcabef3	-0.09899702
75	0x3e9c964d	0.3058342
76	0x3f2442e7	0.64164585
77	0xbecded48	-0.40220094
78	0x3df5e45c	0.12006447
79	0xbea53577	-0.32267353
80	0xbeaca291	-0.33717778
81	0x3e8347ac	0.2564062
82	0x3ee7d88e	0.45282406
83	0x39515c30	0.00019966136
84	0xbd480975	-0.048837144
85	0xbd77abb4	-0.060466483
86	0x3ed47ebc	0.4150294
87	0x3f3845ac	0.7198131
88	0x3f37315b	0.71559685
89	0xbd9c0bb7	-0.07619422
90	0xbeab6704	-0.33477032
91	0xbeb28001	-0.34863284
92	0xbea07c33	-0.31344756
93	0x3ce113c2	0.027475242
94	0xbe98750e	-0.29776806
95	0xbe95d066	-0.29260558
96	0xbe51e7e3	-0.20498614
97	0xbe881ad2	-0.26582962
98	0xbd6ecf9e	-0.058303468
99	0x3c49c2b4	0.012314487
100	0xbe995c53	-0.2995325
101	0x3efb8018	0.49121165
102	0x3f042c29	0.51629883
103	0xbeb0aaaf	-0.3450522
104	0x3f59ca6f	0.85074514
105	0xbdd1a142	-0.102358356
106	0x3eed6400	0.46365356
107	0xbef896ef	-0.48552653
108	0xbefbf08f	-0.4920697
109	0xbd92342e	-0.07138859
110	0x3dd0b84b	0.10191401
111	0x3ec13e79	0.37742975
112	0x3e6cc592	0.23122242
113	0xbec2186b	-0.37909254
114	0xbe21b8c3	-0.15793137
115	0xbe2267fb	-0.15859978
116	0xbe92f68f	-0.28703734
117	0xbeb8be6c	-0.3608278
118	0xbe6e19b5	-0.23251994
119	0x3ee0ef45	0.43932548
120	0x3e81a6a5	0.25322452
121	0x3ee0905c	0.43860137
122	0xbd866647	-0.065624766
123	0xbe337204	-0.17523962
124	0x3e0d4ad1	0.13798071
125	0x3dff8e55	0.124783196
126	0xbd7df976	-0.062005483
127	0x3d4c0741	0.049811605

output.weight f4 [1, 128]
0	0x3d073246	0.03300693
1	0x3d89833f	0.06714486
2	0xbe472edb	-0.19451468
3	0x3dbc3062	0.09188916
4	0xbe062471	-0.13099839
5	0x3dcdaef5	0.10043136
6	0x3d91f88f	0.07127487
7	0x3db71264	0.089390546
8	0xbd372774	-0.04471536
9	0x3d396e9c	0.0452715
10	0xbccde1bd	-0.025132054
11	0x3d037591	0.032094542
12	0x3dc16d13	0.094446324
13	0xbb29b6e8	-0.0025896374
14	0xbd4e8ea4	-0.050429
15	0xbd32caa5	-0.043650288
16	0x3cbf228f	0.023331909
17	0xbd1a777e	-0.037711613
18	0x3d39825e	0.045290343
19	0x3d39637d	0.045260895
20	0xbdb5580a	-0.08854683
21	0x3d6f0023	0.05834974
22	0x3d9a92c5	0.07547525
23	0x3d2ca7b0	0.042152107
24	0x3d32a9f4	0.04361911
25	0xbd7d6895	-0.061867315
26	0x3c5307a2	0.012880238
27	0xbd18f527	-0.03734317
28	0xbdd9c337	-0.106329374
29	0x3d7cbdaf	0.061704334
30	0xbbdc8619	-0.006729853
31	0xbcf75454	-0.030191578
32	0xbdc9033b	-0.09815069
33	0x3d370e40	0.044691324
34	0xbdea412e	-0.11438213
35	0xbda45a97	-0.08025091
36	0x3e0251f1	0.1272657
37	0x3bd9391c	0.0066291224
38	0x3d5150ef	0.051102575
39	0xbdd48c40	-0.10378313
40	0x3dd081ee	0.10181032
41	0xbc73953d	-0.014867124
42	0x3d792665	0.06082763
43	0xbe119bb1	-0.14219548
44	0x3d9b1997	0.0757324
45	0xbd9c6a27	-0.076374345
46	0xbd8fe3b6	-0.07025854
47	0xbdd425ef	-0.10358798
48	0x39e96ac0	0.00044520758
49	0x3d835f80	0.064146996
50	0xbde2de09	-0.11077506
51	0x3d8a501c	0.06753561
52	0xbe3ecfb9	-0.18633927
53	0x3d986352	0.07440819
54	0xbdb56dce	-0.08858834
55	0xbdf95ec0	-0.12176275
56	0x3d429f9a	0.04751549
57	0xbd9c7e33	-0.07641258
58	0x3d715e5b	0.058927875
59	0x3cd5e7b7	0.026111467
60	0x3d5a2949	0.05326203
61	0xbde23819	-0.11045856
62	0xbae6df9c	-0.0017614248
63	0x3d516105	0.051117916
64	0x3ded077d	0.11573694
65	0xbd50ab2c	-0.050944492
66	0x3d6f2bfe	0.058391564
67	0x3db6af85	0.089201964
68	0x3d6b3fcb	0.057433885
69	0xbd5bde39	-0.053678725
70	0xbe1fbd64	-0.1559959
71	0xbdfb7f76	-0.122801706
72	0x3989bc37	0.00026270907
73	0x3d2e611b	0.042573076
74	0x3c7baf82	0.015361669
75	0x3d50ce61	0.05097807
76	0x3df6fe8a	0.12060268
77	0x3b7f6be0	0.003897421
78	0x3ca4f9a0	0.020138562
79	0xbd479af2	-0.04873175
80	0xbcec513c	-0.02884733
81	0x3d2e1092	0.04249627
82	0x3d8ce7b4	0.06880131
83	0xbd583453	-0.052784275
84	0x3d860c40	0.06545305
85	0xbd84c9e3	-0.06483819
86	0x3d950a76	0.07277386
87	0x3e3284e1	0.17433502
88	0x3e4c0b2e	0.1992614
89	0xbe87c6ba	-0.26518804
90	0xba8aef31	-0.0010599849
91	0xbd918831	-0.071060546
92	0xbe887b6d	-0.26656666
93	0x3d2106c4	0.039313093
94	0xbd8bedb3	-0.06832447
95	0xbdbb0514	-0.09131828
96	0xbe0c2ca8	-0.1368891
97	0xbdf0a14d	-0.11749516
98	0xbd1ba130	-0.037995517
99	0x3d9fd224	0.07803753
100	0xbd2f910b	-0.042862933
101	0x3d9fee2b	0.07809099
102	0x3de4a13b	0.11163565
103	0xbd4eba92	-0.050470896
104	0x3e5bc73e	0.21462724
105	0xbdeab7d1	-0.114608414
106	0x3d93c5f1	0.07215489
107	0x3b586635	0.0033019905
108	0xbddffbdd	-0.10936711
109	0xbe11aaf5	-0.14225371
110	0x3d35ce67	0.044386294
111	0x3d7412dc	0.0595883
112	0x3d8dac66	0.06917648
113	0xbd3ffcb7	-0.046871867
114	0xbdd2818b	-0.102786146
115	0x3d109228	0.035295635
116	0xbd81cf05	-0.06338314
117	0xbd9bbaaf	-0.076039664
118	0xbd4ffa2f	-0.050775703
119	0x3d808305	0.0627499
120	0x3cc34a31	0.023839088
121	0x3d973355	0.07382838
122	0x3d97b4c7	0.074075274
123	0xbb1eb62d	-0.0024217472
124	0x3d4467e0	0.047950625
125	0x3e00a073	0.12561207
126	0xbdc184e0	-0.09449172
127	0x3d3b5ca2	0.04574264

bn1.weight f4 [33]
0	0x3d409411	0.047016207
1	0x3d564aad	0.05231731
2	0x3dc96129	0.09832985
3	0x3d12ff6e	0.035888128
4	0x3d11b621	0.035574082
5	0x3d859a7d	0.06523607
6	0x3d3eb701	0.046561245
7	0x3d20c961	0.03925455
8	0x3d541558	0.051778167
9	0x3ccccee5	0.025000999
10	0x3d3bf4d0	0.04588777
11	0x3db87106	0.090059325
12	0x3d8f27da	0.06990023
13	0x3ee64ac7	0.44978926
14	0x3e383e43	0.17992501
15	0x3f016353	0.5054218
16	0x3e74afab	0.23895137
17	0x3e92b0ae	0.2865042
18	0x3e709d12	0.23497418
19	0x3e8fc93c	0.28083217
20	0x3d399acc	0.04531364
21	0x3cb748fa	0.022373665
22	0x3d0dc254	0.034609154
23	0x3e6394f2	0.22224787
24	0x3e1b20f1	0.15149285
25	0x3e6d51e9	0.23175777
26	0x3f1f3bc4	0.6220057
27	0x3dc71ff0	0.097228885
28	0x3f30a630	0.6900358
29	0x3eb7bbaa	0.35885364
30	0x3ede701c	0.43444908
31	0x3ebe89ce	0.37214512
32	0x3f5f08df	0.8712291

bn1.bias f4 [33]
0	0x3c59f28d	0.0133024575
1	0xbd42b810	-0.047538817
2	0x3c830b67	0.015996648
3	0x3c5d2102	0.013496639
4	0x3cadb0a8	0.0212024
5	0xbc16bb19	-0.009199881
6	0xbbfdaea1	-0.0077417647
7	0x3ad8800e	0.0016517655
8	0x3cb278e3	0.021786159
9	0xbbb014d1	-0.0053735753
10	0xbbaffad4	-0.005370477
11	0xbc3e5c7e	-0.011618732
12	0x3c4a713c	0.012356099
13	0x3db222a8	0.086980164
14	0x3d0b20d0	0.03396684
15	0xbd7196d5	-0.058981735
16	0xbd21e0e8	-0.039521128
17	0x3e46bc16	0.19407687
18	0x3d4e0564	0.05029811
19	0xbda580fe	-0.08081244
20	0x3b9f96d9	0.0048702774
21	0x3b92517d	0.0044652806
22	0x3c0608f6	0.008180847
23	0x3ca15ea3	0.019698447
24	0x3d8dbf5a	0.06921263
25	0xbd0390ba	-0.032120444
26	0x3d7deeb6	0.06199523
27	0x3e9834cf	0.2972779
28	0xbd6a6520	-0.057225347
29	0x3e989ff6	0.2980954
30	0x3a8c466f	0.0010702143
31	0xbadeeb2e	-0.0017007345
32	0x3d03819f	0.03210604

bn1.running_mean f4 [33]
0	0xbeee1ff7	-0.46508762
1	0xc02fae7d	-2.745025
2	0x3e8f74e8	0.2801888
3	0x3f66d988	0.90175676
4	0xbd63283c	-0.055458292
5	0xbc3cd4e8	-0.01152537
6	0x3d15383a	0.036430575
7	0xbd15a8a7	-0.036537793
8	0x3baed01e	0.005334868
9	0x3cb0f5a9	0.021601515
10	0x3d944be0	0.072410345
11	0x3cee3fb2	0.029083107
12	0x3d956221	0.07294107
13	0xbf363ec4	-0.7118952
14	0xc03a8a8c	-2.9147062
15	0x3eef8a61	0.46785262
16	0x3c96fd9c	0.018431477
17	0x3f11f296	0.5701078
18	0x3cc42dff	0.023947714
19	0xbeabc313	-0.33547267
20	0x3d9c2b31	0.076254256
21	0xbc5d6dab	-0.013514916
22	0x3d577207	0.05259898
23	0x3d7f0e00	0.06226921
24	0x3cc4a10d	0.024002576
25	0xbc0bc5aa	-0.0085310135
26	0xbd83d6bf	-0.06437444
27	0xbf7ffffc	-0.99999976
28	0xbdbfc911	-0.09364522
29	0x00000000	0.0
30	0x3f7ffffc	0.99999976
31	0x00000000	0.0
32	0x3a602aa1	0.0008551274

bn1.running_var f4 [33]
0	0x404fc103	3.2461555
1	0x3ee6de65	0.4509155
2	0x40915176	4.541194
3	0x3ca6f110	0.02037862
4	0x3d574ddf	0.052564498
5	0x3c27526a	0.01021252
6	0x3dcb7fd8	0.09936494
7	0x3ec094c4	0.376135
8	0x3d3a0536	0.045415126
9	0x3dc80d2f	0.097681396
10	0x3ff54728	1.916234
11	0x3f7a2387	0.9771046
12	0x4033cfec	2.8095655
13	0x41889d6a	17.076862
14	0x3fc7c6d4	1.5607553
15	0x41aaab0b	21.333517
16	0x3dc4a738	0.09602207
17	0x3e472d6a	0.19450918
18	0x3db3f753	0.08787408
19	0x3e3da557	0.18520103
20	0x40276379	2.6154463
21	0x3f57b479	0.84259754
22	0x3f1e12e5	0.6174758
23	0x40d64e68	6.697071
24	0x40a45aee	5.1361
25	0x4110554b	9.0208235
26	0x4203fec4	32.998795
27	0x00000004	6e-45
28	0x41f962c6	31.17323
29	0x00000004	6e-45
30	0x00000004	6e-45
31	0x00000004	6e-45
32	0x3ea5359b	0.3226746
